tomato_leaf_disease_prediction.tflite (tflite, 498720 bytes, 14 tensors)

sequential/dense_1/MatMul f4 [10, 64]
000000 24 a6 ac be ef a5 97 3d 79 7d 29 3e 67 0b 12 3e
       -0.33720505 0.07404696 0.1655177 0.14262162
000010 f3 89 da be 7b e1 2e 3e e3 14 0a be 96 19 58 be
       -0.42683372 0.17078201 -0.1348453 -0.2110351
000020 41 60 a0 be e3 53 94 be 5e 41 3e be 44 fe c5 be
       -0.31323436 -0.2897025 -0.18579623 -0.38670552
000030 0d 91 72 be 0d 51 d8 3d d5 81 9a be 34 78 11 3e
       -0.23688145 0.10562334 -0.3017718 0.1420601
000040 9f 7d 91 be 18 b1 29 3e 19 98 6f bd 60 bc 8f be
       -0.28416154 0.16571462 -0.05849466 -0.28073406
000050 9d ad 6f be 26 80 8d be dc 76 c3 3d 4f d4 31 3e
       -0.23406072 -0.27636832 0.09544155 0.17366146
000060 6f d7 21 be 2b 6d 9c 3d b2 18 82 bd 43 fa 8f be
       -0.15804838 0.0763801 -0.063523665 -0.28120622
000070 b2 be 25 3e 55 6b ea 3d d3 34 86 be d8 2f d4 3d
       0.16186026 0.11446253 -0.26212177 0.10360688
000080 ce 3f 6b 3e 05 f3 10 3e 79 3b ac be 19 a8 ca 3d
       0.22973558 0.14155205 -0.33639124 0.09895343
000090 7c e7 e9 3d d4 17 de be 37 0f b1 be 26 98 14 3e
       0.11421105 -0.43377554 -0.3458192 0.14511165
0000a0 a3 07 04 be 6b b5 5d 3e ae 64 18 3e f7 db 89 3d
       -0.12893538 0.21651237 0.14882156 0.06731408
0000b0 d5 5e 31 be ae 72 fc be 8e a7 7a bd a5 19 4b 3e
       -0.17321332 -0.49306244 -0.06119495 0.19834001
0000c0 b4 23 c1 3d 20 6f 78 be 40 54 84 be 40 f5 12 3e
       0.09430638 -0.24261141 -0.25845528 0.14351368
0000d0 0d 40 9b be 96 53 96 bb ad ed 6b 3e c1 14 b1 be
       -0.30322304 -0.004587601 0.23039885 -0.34586146
0000e0 05 7c c9 3d c6 ae a3 bd 08 ac 74 3e 56 bf 95 be
       0.09838108 -0.0799232 0.2389375 -0.2924754
0000f0 db 0a dc bd 53 91 b0 be 94 b9 56 3e d8 b0 c2 be
       -0.10744258 -0.34485874 0.2096923 -0.38025546
000100 bb 16 ed be cb 69 15 3e 46 44 ba bd 32 ce 07 3e
       -0.46306404 0.14591138 -0.090950534 0.13262251
000110 d9 5f 9e be 29 1c 55 3e 01 e4 72 3e 83 88 9a be
       -0.309325 0.20811523 0.23719789 -0.30182275
000120 d8 7c a4 bd bd 54 38 be de 88 3b 3e 9d be bc 3c
       -0.080316246 -0.18001075 0.1831393 0.02304011
000130 06 7f 62 be a7 5a 21 be 09 9e 76 be c6 a3 a0 be
       -0.22118768 -0.15757237 -0.24083723 -0.3137495
000140 93 8b 7a 3e 34 96 69 3e 5f 52 6f 3d 0e e3 50 3e
       0.24467306 0.22811204 0.058428165 0.20399114
000150 53 ad b1 bd 81 cd 1d 3e 50 2f e6 be b8 bb fb bc
       -0.08675637 0.15410425 -0.44957972 -0.03072916
000160 0c aa 8f be b0 0f 2c be 53 d6 61 3d 9b aa 10 3e
       -0.28059423 -0.1680286 0.055136036 0.14127581
000170 95 bc 55 be 72 f9 75 be 41 65 02 3e 89 9c 46 be
       -0.2087272 -0.24020937 0.12733938 -0.19395651
000180 89 da 7a 3e 1b 66 8a be 1d b3 ee 3d 65 f5 05 3e
       0.24497427 -0.27031025 0.11655257 0.13081892
000190 f9 e5 b0 3d 3f 24 ed be 4b 14 47 be 41 cc 29 3e
       0.08637614 -0.46316716 -0.19441335 0.16581823
0001a0 b8 3d 85 be f2 55 42 3e 43 af de be 26 18 ce 3d
       -0.2602365 0.18978098 -0.4349309 0.100632
0001b0 7d 55 10 be 76 01 1b 3d 3d f9 82 3c 64 b8 58 3e
       -0.14095111 0.03784319 0.015987987 0.2116409
0001c0 4b 5c 90 be 88 2b 3f 3c 3a b2 51 3e 04 5c bb bd
       -0.28195414 0.0116680935 0.20478144 -0.0914841
0001d0 b1 40 a7 bd 0d 45 f1 3c 9c 65 43 be 85 90 ab be
       -0.08166636 0.029451871 -0.1908173 -0.33508697
0001e0 83 ad 99 be d9 7f 66 bd f6 d5 46 bd f4 ed 03 bd
       -0.3001519 -0.05627427 -0.048543893 -0.03220935
0001f0 d0 d8 b4 bd 04 d7 34 be 95 9f 32 3e 35 a1 3a be
       -0.08830416 -0.17660147 0.17443688 -0.18225558
000200 48 95 b4 3d 90 12 3e 3e e1 4c bf be 06 cc 52 be
       0.08817536 0.18561769 -0.3736334 -0.20585641
000210 17 ae 79 be 67 ee 49 3d fa 4c 82 3e 48 28 d6 be
       -0.24382816 0.049299624 0.25449353 -0.41827607
000220 ec c2 6a 3e c9 1a da be 85 46 4d 3e 4e cb c5 bd
       0.2292592 -0.4259856 0.20046432 -0.09657918
000230 89 a2 89 be 1e f5 b1 be d9 df 8e bd 69 5d 5b be
       -0.26881817 -0.34757322 -0.06976289 -0.21422352
000240 11 a3 14 be ae 3f 80 3e ac 36 5c be d3 b4 01 3e
       -0.1451533 0.25048584 -0.2150523 0.12666635
000250 a0 f4 26 be 1b 0d 85 be 48 c3 3b be 43 b4 17 3e
       -0.16304255 -0.2598656 -0.18336213 0.14814858
000260 2e 04 ef 3d 19 28 04 be cc 6f b0 be 4c 02 f9 3d
       0.11670719 -0.12905921 -0.34460294 0.12158641
000270 99 bf 2f 3e 57 5e 97 be bc 7b 13 3e 8b ec c4 be
       0.17162932 -0.29564163 0.1440267 -0.38461718
000280 4c 47 86 3c b3 55 19 3e f6 a9 08 3e 1b cd 06 be
       0.016391419 0.14974098 0.13346085 -0.13164179
000290 10 54 cf be 2d 3d 2c bb d0 a6 21 3e 43 53 6b 3e
       -0.40493822 -0.002628158 0.1578629 0.2298098
0002a0 88 3b fa 3c 27 07 76 be e7 78 15 3e d2 39 56 be
       0.030545965 -0.24026166 0.14596902 -0.20920494
0002b0 60 e3 72 3e 7f f9 21 be 41 8f 1b 3b 57 db 15 be
       0.23719549 -0.15817831 0.002373651 -0.14634453
0002c0 b0 e1 b7 be 0a 40 89 3e 36 b0 c4 bd 1f 31 0d 3e
       -0.35914373 0.2680667 -0.09603922 0.1378827
0002d0 1e c2 bb be e1 0f c6 be a6 a1 2f bd f9 78 33 3d
       -0.36671537 -0.3868399 -0.04287877 0.04381654
0002e0 1a cd b5 3d 70 4d a5 be 8f 45 e6 bc 0d 1c 81 3d
       0.08877011 -0.32285643 -0.02810934 0.063041784
0002f0 f4 c3 37 3e a6 d2 b4 be dc 0d 28 3c bf 80 00 3e
       0.17945844 -0.35316962 0.010257211 0.12549113
000300 cb 8c 33 3e 98 5c 23 3e 00 c6 8f be d3 fb af be
       0.17534177 0.1595329 -0.2808075 -0.34371814
000310 24 95 97 3d fc f8 47 3e d3 7d 67 3e d6 14 50 3d
       0.07401493 0.19528574 0.22606592 0.05080112
000320 0d e1 89 3e 49 c0 91 be 07 dc 48 be a9 e1 cf be
       0.26929513 -0.28467014 -0.19615184 -0.40601853
000330 1a 92 49 be 03 58 0d 3e bf a2 a3 be 30 df da be
       -0.1968464 0.13803105 -0.31960103 -0.42748404
000340 df 08 c6 bd 6c 2d 89 be 02 f3 71 3e 2c 3e b5 bd
       -0.09669661 -0.26792467 0.23627856 -0.08849749
000350 65 7d 97 3e 15 52 04 be 44 f5 86 be ba dc fe bd
       0.29587856 -0.12921937 -0.26358998 -0.12444444
000360 35 ab 89 bd 46 de 69 3d fe 04 d0 3d 5d 1f a9 be
       -0.06722108 0.057096742 0.10157202 -0.3303174
000370 e5 43 27 be 24 58 18 3e 87 16 f9 3b 17 b6 91 3d
       -0.16334493 0.14877373 0.0076015624 0.07114809
000380 f6 7e 96 be 01 68 d2 bd e7 c7 e9 3d 90 50 a7 be
       -0.29393739 -0.102737434 0.114150815 -0.32678652
000390 e7 a4 9c be 16 a1 6f bc 8d 17 71 3e e2 58 c8 be
       -0.3059456 -0.014625808 0.2354414 -0.39130312
0003a0 a4 9b b1 be 07 f5 ae be 2d c4 9f be a0 e7 f5 bd
       -0.34689057 -0.34171316 -0.31204358 -0.120070696
0003b0 36 10 6f 3e 8a 4a 76 be 36 ea 60 3e 40 9c ba be
       0.23346028 -0.24051872 0.21964344 -0.36447334
0003c0 45 73 11 3e d5 82 12 be a7 ce 3e 3e 8b 2b 7b be
       0.14204128 -0.14307721 0.18633519 -0.24528329
0003d0 05 85 af bd 19 68 be be 34 81 6c be ee 63 37 be
       -0.08570293 -0.37188795 -0.23096162 -0.17909214
0003e0 bc e4 8c be b9 01 e6 3c a4 49 7a be cb 7d ec bd
       -0.2751826 0.028076993 -0.24442154 -0.115474306
0003f0 da dd 9f 3d 55 a1 69 3e 48 25 40 3e fe c3 2e 3e
       0.07805987 0.2281545 0.18764222 0.17066953

sequential/dense_1/BiasAdd/ReadVariableOp f4 [10]
000000 92 2b 4a bd 9b d0 96 3e 8e 61 e6 bd 17 23 2e be
       -0.04935796 0.29456028 -0.11249076 -0.17005573
000010 8a d8 21 bf 3e 0d 0c 3f 80 a6 3a 3f a0 b8 44 bf
       -0.6322104 0.54707706 0.7291031 -0.76844215
000020 b8 32 a8 3b 82 d8 5e be
       0.0051329993 -0.21762279

sequential/dense/BiasAdd/ReadVariableOp f4 [64]
000000 93 7f a6 3d 83 99 31 3e bb 69 97 bc 0d 5d 6f 3d
       0.081298016 0.17343716 -0.018483033 0.05843835
000010 1a 26 07 3d d4 03 1c 3e ae dd f4 3c f0 65 5e bd
       0.03299532 0.15235835 0.029890861 -0.054296434
000020 83 79 d8 3d e5 76 4e 3c bf ed 02 3d f6 93 e2 3c
       0.105700515 0.012601589 0.031965014 0.027658444
000030 00 af 16 3e 2b 7e a3 3c 76 84 9d 3c f1 0c 89 3d
       0.14715195 0.019957623 0.019228201 0.066919215
000040 ff 29 f9 bd 5e 39 3d 3e 7e 0c 18 bd a5 fe 37 3d
       -0.12166213 0.18478915 -0.03712129 0.044920582
000050 ba 76 01 bd 31 8e 07 3d c6 a9 d9 3d 54 d6 57 3d
       -0.031607367 0.03309459 0.10628085 0.052694634
000060 e8 ef ab 3d 72 a6 8c bd 6c ad ec bd 47 ab 3f bd
       0.08395368 -0.068676844 -0.11556515 -0.046794202
000070 f7 9f f2 3c 19 90 dd 3a 31 25 eb 3d 15 55 02 bd
       0.029617293 0.0016903906 0.11481703 -0.03181942
000080 d5 35 5c 3e 0b bf c2 3d a9 29 e7 3d 04 49 e1 3d
       0.2150491 0.09509095 0.11287243 0.11000255
000090 6e 33 bf bc e0 b9 2a 3d f7 07 8e bd a0 23 17 3e
       -0.023339953 0.04168117 -0.06935113 0.14759684
0000a0 b2 fd fc bc 69 32 55 3e f6 af d4 3c 12 f5 9c bc
       -0.03088269 0.20820011 0.025962811 -0.019159827
0000b0 83 6a b6 ba e0 58 1c bd c8 65 08 bd a3 0d aa 3d
       -0.0013917241 -0.038170695 -0.03330019 0.08303382
0000c0 47 df 15 bc 97 3e 3b 3e d3 76 18 be 5a f3 ad 3d
       -0.009147472 0.18285595 -0.14889078 0.08493681
0000d0 21 57 6b bc 76 60 1a 3d 86 f7 f0 3c 68 57 f6 3b
       -0.014364035 0.03768965 0.029414903 0.007517744
0000e0 f7 d8 2a bb 51 52 2b bc 7e 8e 2f bd 77 b1 a1 bb
       -0.0026069263 -0.0104566375 -0.0428605 -0.0049344855
0000f0 fe 2b 09 bd d8 a8 03 3d fe 88 bf 3d f4 7b ae bc
       -0.03348922 0.032143444 0.09352301 -0.02129934

sequential/conv2d/BiasAdd/ReadVariableOp f4 [16]
000000 cd c6 f8 bc d6 ac 13 be e7 1b e7 ba 9e 89 bf 3c
       -0.030368233 -0.144214 -0.0017632217 0.02338105
000010 b8 50 6f 3d 72 e3 f2 3d 4d 77 b8 3d 17 74 2a 3e
       0.05842659 0.11859788 0.0900713 0.16645847
000020 69 ae bd bd 41 79 10 bd e9 2e ca bc de fb 88 3a
       -0.09261782 -0.035271887 -0.024680572 0.0010451039
000030 45 59 f4 3c 27 d4 fb bc f7 71 7c bc 40 a5 f9 3c
       0.029827723 -0.03074081 -0.015408031 0.030474305

sequential/conv2d_1/BiasAdd/ReadVariableOp f4 [64]
000000 cf 19 b2 bd b1 fd 9a 3d 27 6c 40 3d 80 45 c1 bd
       -0.08696329 0.07567919 0.046978142 -0.09437084
000010 a1 69 10 bd 89 92 05 bd 1b 65 3f bd 71 a7 1b bc
       -0.035256986 -0.03261045 -0.04672728 -0.00950037
000020 8c a1 65 be f2 93 e4 bd fc 69 f7 bd 24 cc a5 3d
       -0.22424906 -0.11161031 -0.12080762 0.08095577
000030 96 74 bc 3d 10 e5 4b bd d9 31 85 bc 81 72 9a bc
       0.092019245 -0.049778998 -0.01625912 -0.018853428
000040 c2 73 88 bc bf a1 fe bd 48 10 4b bd d2 b5 1d 3d
       -0.01665676 -0.12433194 -0.049576074 0.038503475
000050 0c e3 72 bc f8 5d 16 bd f3 e0 04 be e2 33 f3 bd
       -0.01482464 -0.03671071 -0.12976436 -0.1187513
000060 42 3d 2a 3d 78 03 05 bd 62 7e d4 bc 23 31 d4 3d
       0.041562326 -0.03247401 -0.02593917 0.103609346
000070 65 c9 1d be f8 04 78 bd fe 71 41 bd 46 ea 16 39
       -0.15408857 -0.060551614 -0.047227852 0.00014392388
000080 d7 08 13 3d b9 89 09 be 4b 04 0c bd 76 cf 94 bd
       0.035897102 -0.13431443 -0.03418378 -0.072661325
000090 76 06 96 3d d1 cb 42 bd e1 6b f9 bd 3a f4 3b be
       0.07325451 -0.047557656 -0.121787794 -0.18354884
0000a0 35 ec e2 bd ae 28 5b bd 9c 72 e7 bb a0 fa 84 bd
       -0.11080209 -0.053505592 -0.007063223 -0.064931154
0000b0 b6 ff 1a bd cb a7 d3 bc 09 87 9e 3c 59 9b 07 be
       -0.03784152 -0.025836846 0.0193515 -0.13242854
0000c0 20 3f 11 bd 2e 0e a2 3d a4 07 37 bd d6 a0 be 3c
       -0.03546059 0.07912861 -0.04468502 0.023270052
0000d0 c7 99 db bc 66 4d 58 3d 6b 1c 28 3d 26 17 14 3e
       -0.026806725 0.052808188 0.041042726 0.14461955
0000e0 ab 0a 48 bd 2d f7 c7 bd c7 4c bb bd 48 d5 d5 bd
       -0.0488383 -0.09763942 -0.091455035 -0.10441071
0000f0 c8 d1 9c bc 9b 04 36 bd 57 5c e6 bd 39 c9 20 3d
       -0.019143 -0.044437986 -0.11248081 0.0392544

sequential/conv2d_2/BiasAdd/ReadVariableOp f4 [64]
000000 30 b2 eb bd 41 c3 b8 bc 21 e0 93 3d fa b2 79 bd
       -0.11508596 -0.022554042 0.072204836 -0.0609617
000010 dc 02 a6 bc 77 9e 2d bd 18 15 57 bd f6 99 63 bd
       -0.020265035 -0.042387452 -0.05251035 -0.05556675
000020 54 36 39 bd b2 82 e2 bd 00 18 2a be 75 9f 07 be
       -0.045217827 -0.110600844 -0.16610718 -0.13244422
000030 e3 f1 15 be f0 de 3d be ca e8 52 3e c1 33 19 be
       -0.14643054 -0.18542075 0.20596614 -0.14961149
000040 dd 0c 45 3b 59 71 ea bc 50 05 cf bc 0f 2b b2 bd
       0.0030067482 -0.028618501 -0.025271088 -0.08699619
000050 aa 10 54 3b ec 9a 0a be c0 bb 30 be 59 60 22 bd
       0.0032358565 -0.1353566 -0.17259121 -0.039642666
000060 88 54 4e be 92 45 3a bd 8b 29 d0 bc fd 2c 48 bd
       -0.20149434 -0.045476504 -0.025410434 -0.04887103
000070 85 36 be bd 4f 15 58 3d 52 96 61 bd 4d 91 bb 3d
       -0.092877425 0.052754696 -0.055074997 0.09158573
000080 41 fb 70 bd 69 37 10 be 36 8c 46 3e 77 39 bc bd
       -0.058833364 -0.14083637 0.19389424 -0.09190648
000090 f8 71 ca bc 25 9a d0 bd 15 2c a1 bc 0d 9e ff bc
       -0.024712548 -0.10185651 -0.01967434 -0.031203294
0000a0 a2 21 ee bc 46 d8 70 3d 19 42 e0 bd 2e fb 76 bd
       -0.029068772 0.058800004 -0.10950107 -0.060298137
0000b0 06 a8 5c be 2d ac 06 3d f2 65 fb bc 4b c4 c4 3c
       -0.21548471 0.032879043 -0.03068826 0.024019381
0000c0 84 03 a1 bb df a9 05 3d fa 62 d5 bd 31 3b e7 bb
       -0.004913749 0.032632705 -0.10419269 -0.0070566167
0000d0 7f fd 9b 3c 42 6c 06 be 47 15 f8 bd 14 f0 4c bd
       0.019041775 -0.13127235 -0.12113433 -0.050033644
0000e0 5e 8a a9 bc 58 b2 17 bd 61 e4 be bd ab 76 b2 bd
       -0.020695861 -0.037035316 -0.093209036 -0.0871404
0000f0 e2 0c 2d bd 96 e4 cf bd ef 9a 0a bd 77 b4 a8 bd
       -0.042248614 -0.10151021 -0.033839162 -0.08237546

sequential/conv2d_3/BiasAdd/ReadVariableOp f4 [128]
000000 6f a1 ae bc f2 b6 45 bd 74 a1 a5 bd 96 d4 b1 bb
       -0.021317212 -0.048270173 -0.08087435 -0.0054269535
000010 ac b8 4e bd 22 35 00 be 65 c6 75 be 1c c2 cb bd
       -0.050469086 -0.12520269 -0.24001463 -0.09949133
000020 df 0f 72 be b6 b3 c6 3c 72 4a 25 be 07 30 3a be
       -0.23638867 0.024255615 -0.1614168 -0.18182383
000030 02 00 a7 bd c7 a6 43 bd f2 37 0a 3e b8 5a c1 bc
       -0.08154298 -0.047766473 0.13497904 -0.023602828
000040 71 9d 07 bd 31 86 38 3b 4b b2 ca bc ae 6b 1c be
       -0.033109132 0.0028156156 -0.02474322 -0.15275452
000050 22 8b 44 be 4a 8a 91 bb be ad 23 3e 40 63 35 3d
       -0.191937 -0.004441534 0.15984246 0.044284105
000060 50 03 bb 3c ab a2 11 be 97 b7 84 be 3d 27 c9 bc
       0.022828728 -0.14222209 -0.25921318 -0.024554843
000070 76 bc b5 bc c4 2b 1a bd 2a cd f6 bd 42 46 86 bd
       -0.022184592 -0.037639394 -0.12050851 -0.06556369
000080 21 ec fd bd 9f b9 e8 3c 87 97 4c be 9d 65 b8 bd
       -0.12398554 0.028408824 -0.19979678 -0.09003756
000090 27 c0 2b bd 39 3c 40 bd d7 40 32 bc 12 45 39 3d
       -0.041931298 -0.046932433 -0.010879717 0.045231886
0000a0 1a 65 c9 bc 83 5e 07 bd 64 72 9c bd a0 e2 27 3d
       -0.024584342 -0.033049118 -0.07639006 0.04098761
0000b0 5f f0 3d 3e c1 66 bd bc 88 18 30 3e f2 d2 92 bd
       0.18548726 -0.023120286 0.17196858 -0.07169141
0000c0 fa 48 85 3d ce 83 a3 bd 7d 29 87 bd 91 0a 1e be
       0.0650806 -0.07984124 -0.0659971 -0.15433718
0000d0 66 7f 24 3e e9 a0 07 3e db 31 bc bb df d5 ef 3d
       0.16064224 0.13244976 -0.005743248 0.117107145
0000e0 b4 11 12 be cb 24 62 bd ff d0 68 bc 73 9c 26 be
       -0.14264566 -0.05521087 -0.014209985 -0.16270618
0000f0 a4 19 b8 bb b0 28 19 be da 04 46 bd 96 71 2c bd
       -0.005618291 -0.14956927 -0.04834447 -0.04210051
000100 41 48 41 be 3f f6 b1 bd 0b 90 fa bc ae 9e 9f bc
       -0.18875219 -0.08689546 -0.030586263 -0.019484844
000110 3f 65 0d 3e c1 dc 46 bd c2 4d 25 bd 09 c7 e8 bd
       0.13808154 -0.04855037 -0.04035736 -0.11366088
000120 91 1f 6f bc 04 c4 42 bd c5 c2 f4 3c 4a 5c 28 3d
       -0.014594928 -0.047550216 0.02987803 0.04110364
000130 4e 83 12 be d0 4a 82 bd 2c 2b e8 bd 6e 26 04 3e
       -0.14307901 -0.063619256 -0.113363594 0.12905285
000140 b5 97 12 3e 06 c3 32 3e 02 54 32 bd a3 dd ac bd
       0.14315684 0.17457208 -0.043537147 -0.08440711
000150 b2 f5 a9 bd 29 ca 87 bc 45 f9 c5 bd f0 2e 6c be
       -0.08298816 -0.01657589 -0.09666685 -0.2306478
000160 62 2c 7b bd 31 ff 0f be 40 4d b4 3d ea 9b 48 bd
       -0.061321624 -0.14062192 0.08803797 -0.048976816
000170 ab 42 9d bd 3e ce aa bc 9a 3a 96 bd 5c c7 50 bd
       -0.076787315 -0.020850297 -0.07335396 -0.050971374
000180 b1 42 fe bd 04 6e 01 3e b8 b3 18 bd 81 e8 d8 bd
       -0.12415064 0.12639624 -0.03728077 -0.105912216
000190 05 25 89 bd b9 84 1b bc 21 31 f4 bc af 69 20 3e
       -0.06696514 -0.009492093 -0.029808583 0.15665315
0001a0 68 a7 7c bd 9d 87 03 bd 8f 2d e6 bc 5f 67 f2 bd
       -0.06168309 -0.032111753 -0.028097896 -0.11836123
0001b0 6c 28 5b 3e ba be b0 bd a3 4b 49 bd 41 41 a2 bc
       0.21402138 -0.08630128 -0.0491444 -0.019806506
0001c0 76 5f d5 3b 9b 7d 48 3d ec 29 f2 3d bc 20 bb bc
       0.006511624 0.04894791 0.11824402 -0.022842757
0001d0 c7 96 27 bd 59 07 fd bc a6 42 ab bc 78 1e a8 bd
       -0.040915277 -0.030887293 -0.020905804 -0.082089365
0001e0 46 29 ce bd 23 c6 74 bd 8c a0 eb bd 58 35 87 bd
       -0.10066466 -0.05975927 -0.11505231 -0.066019714
0001f0 d6 af 1b 3d de 53 4e bd 0f 30 a0 bd 41 58 f7 bd
       0.038009487 -0.05037295 -0.078216664 -0.1207738

sequential/conv2d_4/BiasAdd/ReadVariableOp f4 [256]
000000 2e dc e9 bd 7f b4 fd bd 3e b2 e2 3d 35 84 0f bc
       -0.11418949 -0.123879425 0.11069153 -0.008759548
000010 6b 09 b6 bd d1 8c 02 3e 72 d8 06 bd f3 9e fc bc
       -0.08888515 0.1274903 -0.032921262 -0.030837512
000020 f0 76 c7 bc 61 49 ac bd 4f 57 a1 bd d9 ed ff bc
       -0.024348706 -0.084124334 -0.07877981 -0.031241344
000030 3d 3e ec bc 66 0f 09 be f6 66 40 bc ef c3 45 bc
       -0.028838271 -0.1338478 -0.011743298 -0.01207064
000040 80 9a 16 bc 2a 61 3c be 28 fd 59 bc 41 61 a8 bd
       -0.009192109 -0.1839644 -0.013304986 -0.08221675
000050 a1 7b b6 bc 68 21 3a be eb cb be bc 0f f0 46 3d
       -0.022275748 -0.18176806 -0.023290595 0.04856878
000060 e5 bf 08 3d e3 2e de bd d1 5f 4d bd b4 05 1e bc
       0.03338613 -0.10848787 -0.050140206 -0.009644914
000070 5f da 9a bd e0 16 16 be be a2 c6 bc 9d 29 45 bc
       -0.07561182 -0.14657164 -0.024247523 -0.012033847
000080 c7 cf e2 bb ea 3f 49 be 3f f9 31 bd 50 32 19 bd
       -0.0069217416 -0.19653288 -0.04345059 -0.037401497
000090 c2 e8 40 bd 20 ef 0a bd 81 e5 ff bc 46 ef 4e bc
       -0.047096975 -0.033919454 -0.031237366 -0.012630289
0000a0 6f 66 6d be 69 4a cb bd d9 37 87 be 31 1f e9 3d
       -0.23183607 -0.09926302 -0.26409796 0.113829024
0000b0 12 66 63 bc bf ca 4f bd 52 c1 e9 3d 3d 18 6d bd
       -0.013879316 -0.050730463 0.11413826 -0.057884444
0000c0 4c ec 45 bd df 90 1e bd 21 c3 00 bc 78 a1 ff ba
       -0.048321053 -0.03871238 -0.007859022 -0.0019503077
0000d0 8e bb a2 bd 17 9d 29 be 16 8c 7a bc 3b b0 c6 bb
       -0.079459295 -0.16563831 -0.015292188 -0.006063489
0000e0 a5 70 39 bb 5a 55 10 bd 76 eb fc bb e9 fa 30 bd
       -0.00282959 -0.035237648 -0.007718499 -0.043208037
0000f0 67 cf 21 bc 25 de 38 be 23 c5 51 bc 33 bd 36 bc
       -0.009876109 -0.18053491 -0.012803349 -0.011153507
000100 c7 ce 9f bd a8 70 89 bd 54 b4 c8 bd ea d1 de bd
       -0.078031115 -0.067109406 -0.0980002 -0.10879882
000110 f2 bb d0 bd 18 96 0a bc 9e eb 91 bc 82 a5 05 3d
       -0.10192098 -0.008458637 -0.017812546 0.032628544
000120 f2 ce fa bd 6b 24 bf bc 5f 3b 5f bd f1 f4 9c 3d
       -0.12246503 -0.023332795 -0.05449998 0.07663906
000130 20 38 3b bd a3 80 f8 3d ec b2 36 be 90 57 07 be
       -0.04570782 0.121339105 -0.17841691 -0.13216996
000140 fd f6 28 bd f8 96 b9 bc 4c 7e b0 bc e7 7b 0c 3d
       -0.04125117 -0.022654995 -0.021544598 0.03429785
000150 dc 2d 4d 3c e8 ec 36 bd db 41 ad bd f0 d2 8c 3d
       0.012523141 -0.044659525 -0.084598266 0.06876171
000160 f7 d5 ce bc 5b 2d dd 3c d0 b0 c2 bd c2 2c 2a be
       -0.02524851 0.026999166 -0.095063806 -0.16618636
000170 d2 f5 47 bd 9e d8 fa bc 99 64 ad 3c c0 97 25 bc
       -0.048818417 -0.03062087 0.021166133 -0.010106981
000180 dc 5e 2e bd 38 af e0 bd 2b e9 f7 bb 5f a5 b9 3d
       -0.042570934 -0.1097092 -0.0075656376 0.09064745
000190 5c 5c bc bd 73 9c dd bc 47 07 41 bc 61 7b f3 bd
       -0.09197304 -0.02705214 -0.01178152 -0.11888767
0001a0 cd ee 13 bc 65 f1 5f bc 53 ee 9a 3c 24 24 4d be
       -0.0090291025 -0.013668393 0.01891247 -0.20033318
0001b0 dd bb 7c 3d 9b 99 ae bd 28 12 da 3b bf 56 3c 3d
       0.061702598 -0.08525392 0.0066549964 0.045981165
0001c0 0e 71 88 bd 33 21 d7 bb 9e 55 00 3e 39 9d c5 bd
       -0.066621885 -0.006565237 0.1253266 -0.096491285
0001d0 30 63 e5 bd 08 df f8 bd c5 d7 31 bd 64 46 23 3d
       -0.11200559 -0.12151915 -0.043418664 0.03986205
0001e0 82 c1 fd bb 96 d7 22 be 05 80 9b bd f7 5f 6a bd
       -0.007744015 -0.15902552 -0.07592777 -0.057220425
0001f0 6b b0 3b be fe bd df bd 25 9b e0 bc c4 c1 36 3e
       -0.18329017 -0.1092491 -0.027417729 0.17847353
000200 ce e2 d1 3c c9 1a a6 bd 61 94 ea bb 6b af 70 bd
       0.025620844 -0.081105776 -0.0071588014 -0.05876104
000210 6a f7 49 be a4 67 5d bc b6 fb f6 bb ab 9e aa bd
       -0.19723287 -0.013513479 -0.0075373305 -0.08331045
000220 9f 10 9c bd 05 fd c9 bc 93 70 6b bd 87 55 62 bc
       -0.07620358 -0.024656782 -0.057480406 -0.013814337
000230 d2 b0 fa bd a0 3d 63 3d 5c 48 b7 3d 5a 32 ad 39
       -0.12240757 0.055478692 0.08949348 0.00033034646
000240 1e c0 51 bc c2 d3 22 bc 98 03 ef bd 74 ed 09 3e
       -0.012802152 -0.009938182 -0.11670607 0.13469487
000250 97 98 cc 3d c5 9f 54 be 96 83 fc 3d 09 e9 9b 3c
       0.09990042 -0.20764072 0.123297855 0.019032018
000260 a0 bf ee bb 4d c2 37 bc 62 ba 67 bc b5 1c 8e bd
       -0.007286027 -0.0112157585 -0.014143558 -0.06939069
000270 86 bd 44 be f9 20 03 be 4c 09 e7 bd 5c d1 9a bd
       -0.19212922 -0.12805547 -0.1128107 -0.075594634
000280 df 0f 26 be ca dc 76 bd a3 01 08 bd 50 b0 e0 bc
       -0.16216992 -0.060269155 -0.033204686 -0.027427822
000290 4a ed 65 bd 64 32 03 bd 08 d4 76 bc 7d 4d 2c bd
       -0.0561345 -0.032030478 -0.015065201 -0.042066086
0002a0 5c ea 8d bd 84 04 19 be 96 d5 37 bd 1c 03 05 bd
       -0.06929466 -0.14943129 -0.044881426 -0.03247367
0002b0 41 aa f5 3c 9f fc fa bd f1 0f 2e be 6d 9f 53 bc
       0.02998841 -0.12255215 -0.16998269 -0.012916428
0002c0 e7 60 11 3d c7 38 15 bc 1f c4 22 be 63 2d 83 bd
       0.035492804 -0.009107775 -0.15895127 -0.06405141
0002d0 9a 0d 56 bd cc df 6e bd 37 8b 58 bb 1f 28 82 3b
       -0.052259065 -0.058318898 -0.0033041963 0.003972068
0002e0 aa 86 da bd f6 89 9c 3d f1 a6 4c bc 81 fc 03 bd
       -0.106702164 0.076435015 -0.012490974 -0.03222323
0002f0 53 9b c6 3d 93 c1 c2 bd 39 bd 96 bc 3b 2c 92 bc
       0.096975945 -0.095095776 -0.018400775 -0.017843356
000300 f4 2d b4 bd ef 3c 02 be 84 4e 32 bd 37 8c 28 bd
       -0.08797827 -0.12718557 -0.04353191 -0.041149344
000310 ae 55 3e 3d 8b d4 df 3d b9 cc b7 bc 3a c3 2f bd
       0.04646843 0.10929211 -0.022436487 -0.042910792
000320 c9 f6 d4 bd 45 d2 da bd d8 82 29 be 0b 51 8b bd
       -0.10398633 -0.10684637 -0.16553819 -0.06802567
000330 b1 6d 3a be a3 44 43 bd 09 7d 3b 3e 7e ad 06 be
       -0.18205906 -0.04767288 0.18309416 -0.1315212
000340 bb 64 fe bc 73 d5 92 3d 14 cf 40 bd d0 4b eb bd
       -0.031053891 0.071696185 -0.047072485 -0.114890695
000350 ff a7 fb bb fb 7e 64 3d 60 3c a7 3b 2f 51 9b bd
       -0.007679939 0.05578516 0.005103633 -0.07583844
000360 e6 7d 80 bc 38 49 3c be 30 b4 a0 bc 19 14 a5 3c
       -0.015685033 -0.18387306 -0.01961717 0.020151185
000370 8c cc 56 3d bd f8 2f bc 90 ad 29 be a4 09 72 bd
       0.052441165 -0.010740456 -0.16570115 -0.059091225
000380 26 16 88 be a4 01 c5 3d e9 16 1f be ee fa af bc
       -0.26579398 0.096194535 -0.15536083 -0.021481957
000390 2e 55 f9 bd 8a 62 49 bc d9 f3 60 bb 81 2c 44 bd
       -0.1217445 -0.01229156 -0.0034325032 -0.047894005
0003a0 ed 36 03 be 7a fe 48 bc dd d0 2a bd bf 20 80 be
       -0.12813921 -0.012267703 -0.041703094 -0.25024983
0003b0 7c 75 0e bd 75 82 57 3d 83 df cc bc 57 35 ff bc
       -0.03478001 0.052614648 -0.025008922 -0.031153364
0003c0 35 d2 a0 bc fe 27 50 3b 0b 79 c3 3c d6 b8 a7 bc
       -0.019631485 0.0031762118 0.023861429 -0.020473879
0003d0 80 f8 b7 3d d7 8e 73 bd 61 df fe bc dd 94 9f bc
       0.089829445 -0.059462395 -0.031112375 -0.019480163
0003e0 d2 ee 27 be 9a f8 8a 3b 23 c2 37 be be 67 fd bd
       -0.16399696 0.0042410614 -0.17945151 -0.12373303
0003f0 99 65 1b be 25 20 3c bc a9 a8 d3 bd 42 a6 e1 bd
       -0.15175475 -0.011482273 -0.10334904 -0.11018039

sequential/conv2d/Conv2D f4 [16, 3, 3, 3]
000000 d5 0a 28 be b0 f5 16 3e fe 53 3a be e0 15 33 be
       -0.16410382 0.1474216 -0.18196103 -0.17488813
000010 aa 43 29 be 7a bc 0c 3e c3 05 37 3d bd da 0a 3e
       -0.16529718 0.13743773 0.04468323 0.13560005
000020 b3 22 2a be 6c 8b 2c be 28 3c c9 3d ee 62 13 be
       -0.16614799 -0.1685006 0.09825927 -0.14393207
000030 64 94 0e 3e f0 93 f6 bd ae c9 45 be 55 f8 b5 bd
       0.13923794 -0.120399356 -0.19315216 -0.08885256
000040 88 f6 2b 3c 0c 83 d2 3d a3 a9 36 3d 4a fd 6a bc
       0.010495789 0.102789015 0.044595372 -0.014342615
000050 eb 4d 5f bd 71 97 be bc 5e b7 41 be 03 48 0e 3e
       -0.054517668 -0.023265572 -0.18917605 0.13894658
000060 5f 9d 6c bc 76 8e 3e be f1 eb 1e 3e 07 c6 13 be
       -0.014441817 -0.18609032 0.15519692 -0.1443101
000070 83 f8 37 3e 65 b7 37 3e 6d e3 ca bd ba bf e6 3d
       0.17965893 0.17941053 -0.09906659 0.11267038
000080 73 a1 2c 3e e6 61 3f be 52 b7 1e be ce 2a 00 3e
       0.16858463 -0.18689689 -0.15499619 0.12516329
000090 f3 4f 28 be 81 92 36 3e be e7 3a 3e 7b fb 09 3b
       -0.16436748 0.17829324 0.18252465 0.0021054435
0000a0 27 43 c2 3c 82 4f 24 3e 07 c1 07 be 01 42 d1 bc
       0.023713661 0.16045955 -0.13257228 -0.025544168
0000b0 49 3a a4 bc ac 9c 03 3d 98 cf 73 bc 55 05 16 3e
       -0.020047324 0.032131836 -0.014881037 0.14650472
0000c0 15 fc 9f bd 0a ea 9d 3c 7c 64 46 3e 71 62 03 be
       -0.07811753 0.019276638 0.19374269 -0.12830521
0000d0 7c f5 f0 3d 4f 0d 93 bd af 2e 61 bd 13 28 18 be
       0.117655724 -0.07180273 -0.05497616 -0.14859037
0000e0 14 ed 05 be 2a af 96 3d ae 20 43 3e 58 5d ea 3d
       -0.1307872 0.07357629 0.19055435 0.11443585
0000f0 e3 ce c7 3d b4 01 2d 3e d9 30 0a 3e 13 ea 2e 3e
       0.097562574 0.16895181 0.13495196 0.1708148
000100 b4 34 52 be 32 5d af 3a 84 0f 45 3e 47 ec 7f 3d
       -0.20527917 0.0013379215 0.192442 0.06248119
000110 79 d4 85 3d 9d 30 79 3d b1 f8 2c 3d 09 47 34 3e
       0.065346666 0.060837377 0.042229358 0.17605223
000120 7d 20 9c bd 5d f7 20 be 10 40 2e bc f1 92 1e be
       -0.07623384 -0.15719362 -0.010635391 -0.15485741
000130 21 0a 58 be 31 c4 63 be 62 65 1f be 9c 2e 0c be
       -0.21097614 -0.2224281 -0.15566018 -0.13689655
000140 6a ca 09 bd d6 91 59 be f4 9b 83 be 75 cd 19 3e
       -0.033640303 -0.21247038 -0.2570492 0.15019782
000150 0d c9 72 bd ec fa 7d be bb 9e 63 3e 60 b2 bc bd
       -0.05927377 -0.2480275 0.2222852 -0.0921371
000160 34 00 02 3e bf 9b 26 3e 7d 7b b6 3d 02 99 78 be
       0.1269539 0.1627035 0.08910272 -0.24277118
000170 f6 79 72 3b b8 8c 09 be ea 57 1a 3d d0 60 1c 3e
       0.0036998964 -0.13432586 0.037681498 0.15271306
000180 49 6d 29 bd 3e d1 70 be 7b 6e b0 bc bb 67 2d 3e
       -0.041363988 -0.2351732 -0.021537056 0.16934101
000190 84 70 fc bd f2 aa dc 3d 4d cb 13 3e 44 28 1c 3e
       -0.12326148 0.10774793 0.14433022 0.15249735
0001a0 6c 41 39 3d 35 dd a5 3d 4c dd 2f be 4c 9f 09 3e
       0.045228407 0.080988325 -0.17174262 0.13439673
0001b0 b7 3c 5e bd eb 1e 28 3e 70 40 97 be d5 4b cf 3d
       -0.05425712 0.16418044 -0.2954135 0.10121886
0001c0 c0 bc 67 3d 29 c2 6f be 0a 99 2a 3e 3c f7 e7 bd
       0.05657649 -0.2341391 0.16659942 -0.11326453
0001d0 af 96 15 bd 72 6b 2c 3e eb 82 28 3e c0 61 c6 be
       -0.036520656 0.16837862 0.16456191 -0.38746452
0001e0 50 ab b3 bd 28 f5 be bd be 8b 1a be 83 09 e5 bd
       -0.0877291 -0.093241036 -0.1509237 -0.11183455
0001f0 4f 36 4b 3d 4e e6 a5 be 4c 66 b6 3d 20 cf e3 3c
       0.04961234 -0.3240227 0.0890623 0.027808726
000200 61 7b 84 be 60 55 50 3d 75 86 e9 bd e0 0e 7c be
       -0.2587538 0.05086267 -0.11402599 -0.2461505
000210 47 68 11 3e 7e 8a e3 3d fb 08 a1 3c dc 2f 2d be
       0.14199935 0.111104 0.019657603 -0.16912788
000220 24 9d 63 be df 3c 94 3c 4a 56 38 be 5f b6 79 be
       -0.22227913 0.018095432 -0.18001667 -0.24385975
000230 4c 13 d4 bc 71 8a 80 be b9 6c 4a bd 03 cb 87 bd
       -0.025888108 -0.25105622 -0.049420092 -0.06630518
000240 10 1e 31 be 02 36 0a be fb 81 2d bd c6 d4 37 be
       -0.17296624 -0.13497165 -0.042360287 -0.1795226
000250 4f 21 08 be c7 08 dc bc 40 eb 68 be 03 39 a9 bd
       -0.13293956 -0.026859654 -0.22745991 -0.08262827
000260 09 34 30 be 08 11 1f be 06 b2 84 be 25 74 da 3d
       -0.1720735 -0.1553384 -0.2591707 0.10666684
000270 ba 66 61 be fe 42 45 be a3 09 35 3d d4 de 73 be
       -0.22011843 -0.19263837 0.044198643 -0.23815471
000280 e9 b0 8f bd b0 38 aa 3d 0b 62 b6 bd 92 eb 18 3d
       -0.07016165 0.083115935 -0.08905419 0.037334032
000290 fe ad 73 be 27 8e dc bc bb 69 1e 3e fb 60 ba be
       -0.23796842 -0.026923252 0.1547002 -0.36402115
0002a0 82 f9 8a be 37 75 60 be 8e 6e 7b be 43 24 08 bd
       -0.27143484 -0.21919714 -0.24553892 -0.033237707
0002b0 57 b5 12 3e 2e 73 30 be 96 f1 7c bb bd d2 1b 3e
       0.14326988 -0.17231438 -0.0038596145 0.15217109
0002c0 25 fc 81 bd 18 65 1b be 3c 8e b1 bd 20 c3 3a be
       -0.06346921 -0.15175283 -0.08669707 -0.18238497
0002d0 fe 89 65 3e d7 d6 b7 3d f3 6c 4a bd db a1 be 3d
       0.22415921 0.08976524 -0.04942031 0.09308215
0002e0 c3 50 03 3e a7 67 c5 3d b6 7c 10 3d 2c 5e ac bd
       0.12823777 0.09638911 0.035275184 -0.08416399
0002f0 ab 7e 37 3e af 35 44 be 2c 0f 9b be 62 6d d2 ba
       0.17919414 -0.19161104 -0.30285013 -0.0016054327
000300 71 83 29 be b1 a2 0d be 3b 72 2c be b6 8b f0 bd
       -0.16554047 -0.13831593 -0.1684045 -0.11745398
000310 18 e9 3c be 9d 20 24 3d 45 d3 5d be c3 c6 bf bd
       -0.18448293 0.040070165 -0.21662624 -0.09364083
000320 d1 35 58 be 0e c5 86 bc 78 71 37 be 06 91 79 3d
       -0.2111428 -0.016451385 -0.17914379 0.06092932
000330 e6 0e 1b be 51 f5 5c be 63 1c ed 3d 70 f2 51 bd
       -0.15142402 -0.21577956 0.1157768 -0.051256597
000340 00 85 2a 3d dc 1f b0 3d 66 44 f3 3d d8 09 73 be
       0.041630745 0.08599827 0.1187828 -0.23734224
000350 79 82 70 3d 10 df fe 3c 21 a4 96 3c b7 6a ad bc
       0.05871818 0.031112224 0.01838881 -0.02116905
000360 35 6b bb 3d e9 bd 48 3e d0 ff 1a bd f0 89 06 3e
       0.091513075 0.19603695 -0.037841618 0.13138556
000370 36 fc d0 3d cc 62 85 be 08 42 aa bc 38 f0 3b 3e
       0.102043554 -0.2605194 -0.02078344 0.18353355
000380 6a 68 8a bd 9e 26 ca bd 6e a5 ad bd f5 e9 67 3d
       -0.06758197 -0.09870647 -0.08478819 0.056619603
000390 ca 65 27 3e 51 50 5e 3d a6 ae 3b bd 63 e0 f4 3c
       0.16347423 0.054275814 -0.045820855 0.029892152
0003a0 df c4 21 3e 24 c2 18 be 6a 55 6d 3a 43 10 16 3e
       0.15797757 -0.14917809 0.000905356 0.14654641
0003b0 1f 86 8f be 5e 26 14 bc 24 d1 45 3e 11 7d ed bd
       -0.28032014 -0.009042351 0.19318062 -0.1159612
0003c0 9a df a7 3d 45 c3 9f 3d 77 2c 58 be 28 80 18 be
       0.081969455 0.078009166 -0.21110712 -0.14892638
0003d0 58 8b 45 be 11 3a 18 be e4 4d 37 be 0d 83 d7 3d
       -0.19291437 -0.148659 -0.17900807 0.10523043
0003e0 0f 24 a1 3d c5 d9 ef bd df fa 9c bd 7d eb 3d bd
       0.07868206 -0.11711458 -0.07665037 -0.046367157
0003f0 5c e5 8f bd 8b 6b 9c bd b8 bc 08 be bc 35 8e bc
       -0.07026169 -0.076377 -0.1335324 -0.017359607

sequential/conv2d_1/Conv2D i1 [64, 3, 3, 16]
000000 f2 21 11 e7 f0 bf eb 08 ec 00 36 0c 3c 0d cc 3d
       -14 33 17 -25 -16 -65 -21 8 -20 0 54 12 60 13 -52 61
000010 ee 2e 2f ff ed 9e f4 22 d5 eb ee fe 30 23 cc 06
       -18 46 47 -1 -19 -98 -12 34 -43 -21 -18 -2 48 35 -52 6
000020 ed 2c 3a ed f6 cb e7 00 f1 12 c0 f0 1c 11 f6 ac
       -19 44 58 -19 -10 -53 -25 0 -15 18 -64 -16 28 17 -10 -84
000030 ff 18 09 01 00 9e d2 3b db 02 30 f0 16 ee d2 d6
       -1 24 9 1 0 -98 -46 59 -37 2 48 -16 22 -18 -46 -42
000040 08 07 f3 07 ee bc df 39 f6 0a 29 b9 34 26 f9 a1
       8 7 -13 7 -18 -68 -33 57 -10 10 41 -71 52 38 -7 -95
000050 ec 23 0d 04 fd b2 d0 1a f4 fc fc c7 24 3c 00 92
       -20 35 13 4 -3 -78 -48 26 -12 -4 -4 -57 36 60 0 -110
000060 01 f9 d9 22 03 92 0c 4c da 02 31 c6 0c 0f f0 13
       1 -7 -39 34 3 -110 12 76 -38 2 49 -58 12 15 -16 19
000070 0b 03 e9 0a 25 97 00 37 d4 fa 28 b5 1e 04 ff d0
       11 3 -23 10 37 -105 0 55 -44 -6 40 -75 30 4 -1 -48
000080 fc 04 ea 08 2c 81 09 39 f8 e7 ec ac 00 1e f7 ef
       -4 4 -22 8 44 -127 9 57 -8 -25 -20 -84 0 30 -9 -17
000090 fd 05 02 a9 03 d2 f2 0d f2 fa c0 f5 1d 03 c8 0b
       -3 5 2 -87 3 -46 -14 13 -14 -6 -64 -11 29 3 -56 11
0000a0 04 ee e9 a6 02 d9 05 0c f4 08 c9 06 17 f4 b7 f9
       4 -18 -23 -90 2 -39 5 12 -12 8 -55 6 23 -12 -73 -7
0000b0 f4 f4 07 c1 0e d1 e4 f9 08 fa a7 06 16 04 d3 17
       -12 -12 7 -63 14 -47 -28 -7 8 -6 -89 6 22 4 -45 23
0000c0 0d ba f2 f0 16 d9 1d 03 e4 06 ee e9 2e ef d5 1e
       13 -70 -14 -16 22 -39 29 3 -28 6 -18 -23 46 -17 -43 30
0000d0 fa 81 da d5 0c c8 fc 10 f1 13 d1 f0 1d f3 dd 16
       -6 -127 -38 -43 12 -56 -4 16 -15 19 -47 -16 29 -13 -35 22
0000e0 05 8c fa da 19 d7 14 1e ee f6 c1 e7 1c fe f0 0d
       5 -116 -6 -38 25 -41 20 30 -18 -10 -63 -25 28 -2 -16 13
0000f0 12 f6 83 18 0e e3 27 08 da f7 0d fb f7 f8 ee 1a
       18 -10 -125 24 14 -29 39 8 -38 -9 13 -5 -9 -8 -18 26

sequential/conv2d_2/Conv2D i1 [64, 3, 3, 64]
000000 fd 0a fb 1d e2 a7 fb f9 de e7 f4 00 e8 fc 44 f3
       -3 10 -5 29 -30 -89 -5 -7 -34 -25 -12 0 -24 -4 68 -13
000010 ee e5 e4 e6 d1 fd b4 1a fa 06 01 ff 11 0d fa 2c
       -18 -27 -28 -26 -47 -3 -76 26 -6 6 1 -1 17 13 -6 44
000020 fe 05 04 d5 26 fa d9 d2 c9 de eb 24 fb 16 f2 02
       -2 5 4 -43 38 -6 -39 -46 -55 -34 -21 36 -5 22 -14 2
000030 e1 14 fd 21 bd 17 1f e8 e9 de 0d 02 f9 fe f9 19
       -31 20 -3 33 -67 23 31 -24 -23 -34 13 2 -7 -2 -7 25
000040 fc 3b c5 fc ee af f0 fe bc d6 ed 0f 20 0b 11 01
       -4 59 -59 -4 -18 -81 -16 -2 -68 -42 -19 15 32 11 17 1
000050 14 ce ea c9 e3 f9 c6 f7 04 05 03 21 e6 0a 07 16
       20 -50 -22 -55 -29 -7 -58 -9 4 5 3 33 -26 10 7 22
000060 d1 01 1a d8 49 fd cb bf e3 b9 0a 20 02 11 f2 13
       -47 1 26 -40 73 -3 -53 -65 -29 -71 10 32 2 17 -14 19
000070 00 0d 02 28 ec 12 13 2b e3 e4 f4 05 03 02 fd 22
       0 13 2 40 -20 18 19 43 -29 -28 -12 5 3 2 -3 34
000080 02 1b 05 ce 16 cd ed 05 d5 e4 fd 23 3c 04 f5 00
       2 27 5 -50 22 -51 -19 5 -43 -28 -3 35 60 4 -11 0
000090 0f c5 fb d9 2b 12 e0 be ee d6 f4 1c bf f8 06 f6
       15 -59 -5 -39 43 18 -32 -66 -18 -42 -12 28 -65 -8 6 -10
0000a0 bc 09 03 b8 49 04 c3 f8 f1 d5 02 07 04 04 0b f4
       -68 9 3 -72 73 4 -61 -8 -15 -43 2 7 4 4 11 -12
0000b0 02 15 f2 4c f4 e0 0f 27 ef ec d2 16 f2 fa e3 1e
       2 21 -14 76 -12 -32 15 39 -17 -20 -46 22 -14 -6 -29 30
0000c0 da ee 06 33 13 d1 f7 e9 cd dc e3 db f7 0e 22 08
       -38 -18 6 51 19 -47 -9 -23 -51 -36 -29 -37 -9 14 34 8
0000d0 fc 02 03 f9 00 09 ca 11 bc 17 06 e7 f2 03 04 3b
       -4 2 3 -7 0 9 -54 17 -68 23 6 -25 -14 3 4 59
0000e0 07 f2 f3 f9 f5 f3 dc bd d5 c9 fb fa 08 f9 d9 ee
       7 -14 -13 -7 -11 -13 -36 -67 -43 -55 -5 -6 8 -7 -39 -18
0000f0 cd e6 13 e3 ae 17 ff d0 f0 e5 30 df f0 f8 1b e8
       -51 -26 19 -29 -82 23 -1 -48 -16 -27 48 -33 -16 -8 27 -24

sequential/conv2d_3/Conv2D i1 [128, 3, 3, 64]
000000 09 04 25 fa 04 05 12 03 fc f9 f7 0b 18 10 03 c8
       9 4 37 -6 4 5 18 3 -4 -7 -9 11 24 16 3 -56
000010 e0 fb 05 2c e0 15 11 13 f9 07 fc f0 fc 01 ff ac
       -32 -5 5 44 -32 21 17 19 -7 7 -4 -16 -4 1 -1 -84
000020 f8 f4 0a d9 00 d8 01 f7 ee cf 12 08 cb f9 08 07
       -8 -12 10 -39 0 -40 1 -9 -18 -49 18 8 -53 -7 8 7
000030 11 15 1e e9 fe 0d fe 02 fe fc 06 1c fa 17 01 09
       17 21 30 -23 -2 13 -2 2 -2 -4 6 28 -6 23 1 9
000040 01 f6 0a f9 02 f8 0a 0c 09 06 0f 08 db eb 04 e2
       1 -10 10 -7 2 -8 10 12 9 6 15 8 -37 -21 4 -30
000050 c5 0d 00 ee c9 f5 e8 f3 e9 f4 05 f9 07 02 fe 9d
       -59 13 0 -18 -55 -11 -24 -13 -23 -12 5 -7 7 2 -2 -99
000060 01 ed dd 8a e0 be f7 09 0d e5 17 03 99 e0 02 fc
       1 -19 -35 -118 -32 -66 -9 9 13 -27 23 3 -103 -32 2 -4
000070 0b 0d 13 08 dc 1c cc f7 07 e1 02 0f fc 1d 01 df
       11 13 19 8 -36 28 -52 -9 7 -31 2 15 -4 29 1 -33
000080 11 fb 07 04 05 00 06 fa fa 14 08 08 e4 fd fa f1
       17 -5 7 4 5 0 6 -6 -6 20 8 8 -28 -3 -6 -15
000090 db fc 01 f5 06 10 f4 05 f0 fc 04 f8 09 10 04 b6
       -37 -4 1 -11 6 16 -12 5 -16 -4 4 -8 9 16 4 -74
0000a0 fe e7 03 ec b4 fa 01 f5 0a e4 06 fc b2 e1 00 fa
       -2 -25 3 -20 -76 -6 1 -11 10 -28 6 -4 -78 -31 0 -6
0000b0 14 0e 0a f1 1c 1d fa f3 07 d6 1c 05 fd 0c f0 f0
       20 14 10 -15 28 29 -6 -13 7 -42 28 5 -3 12 -16 -16
0000c0 08 02 f8 04 f8 0c ff 00 f9 d9 0e 17 19 05 e2 c4
       8 2 -8 4 -8 12 -1 0 -7 -39 14 23 25 5 -30 -60
0000d0 9d 02 03 00 c2 0a fa 04 00 f8 f7 09 07 ee fa a7
       -99 2 3 0 -62 10 -6 4 0 -8 -9 9 7 -18 -6 -89
0000e0 f9 06 ea b1 e6 b9 04 ff ce ed 03 0a d0 f4 08 f6
       -7 6 -22 -79 -26 -71 4 -1 -50 -19 3 10 -48 -12 8 -10
0000f0 1c 06 0c dd ca 18 c6 0b 01 fa 02 0a 0d 1d 00 05
       28 6 12 -35 -54 24 -58 11 1 -6 2 10 13 29 0 5

sequential/conv2d_4/Conv2D i1 [256, 3, 3, 128]
000000 ee eb e4 fe 42 02 05 9b 97 f2 db 16 f4 c8 04 ed
       -18 -21 -28 -2 66 2 5 -101 -105 -14 -37 22 -12 -56 4 -19
000010 11 e3 dc 3b c5 be 02 f0 13 b4 b0 f1 f6 12 e9 d2
       17 -29 -36 59 -59 -66 2 -16 19 -76 -80 -15 -10 18 -23 -46
000020 d7 03 b1 29 d9 ee 05 c3 17 d4 0d c6 20 bf fc aa
       -41 3 -79 41 -39 -18 5 -61 23 -44 13 -58 32 -65 -4 -86
000030 e0 00 eb da b7 34 f5 00 e7 ea ce bb b3 0d f0 eb
       -32 0 -21 -38 -73 52 -11 0 -25 -22 -50 -69 -77 13 -16 -21
000040 bf e4 05 cc da 07 10 e0 17 f3 20 1d 49 09 f0 e6
       -65 -28 5 -52 -38 7 16 -32 23 -13 32 29 73 9 -16 -26
000050 e7 14 f4 d7 e8 d8 df e6 2e d0 dc fe f8 00 00 05
       -25 20 -12 -41 -24 -40 -33 -26 46 -48 -36 -2 -8 0 0 5
000060 e5 ec ed 0e 04 fe 0c dd a1 f7 f9 ba f0 ee 0c 0f
       -27 -20 -19 14 4 -2 12 -35 -95 -9 -7 -70 -16 -18 12 15
000070 b8 f1 c4 f4 32 07 4a 01 ef f2 f4 f0 fc 0f 35 dd
       -72 -15 -60 -12 50 7 74 1 -17 -14 -12 -16 -4 15 53 -35
000080 b8 f6 c8 20 fd f7 11 1c c4 fc fb fb c2 f9 d1 12
       -72 -10 -56 32 -3 -9 17 28 -60 -4 -5 -5 -62 -7 -47 18
000090 16 a1 19 1f e9 e0 0d e4 cf f1 c3 04 ed c0 ff e3
       22 -95 25 31 -23 -32 13 -28 -49 -15 -61 4 -19 -64 -1 -29
0000a0 05 f8 04 15 01 f7 d3 31 fb d0 0f ed ef c7 e8 e1
       5 -8 4 21 1 -9 -45 49 -5 -48 15 -19 -17 -57 -24 -31
0000b0 02 07 fd c8 c5 03 ad 16 c6 db d2 c6 fa 12 08 fb
       2 7 -3 -56 -59 3 -83 22 -58 -37 -46 -58 -6 18 8 -5
0000c0 b1 03 f1 d5 f8 eb ed e4 02 e8 e5 2c 5a ff 0a c6
       -79 3 -15 -43 -8 -21 -19 -28 2 -24 -27 44 90 -1 10 -58
0000d0 c2 38 ee fd 21 e6 ca 3e dc fc d5 03 d8 15 45 ec
       -62 56 -18 -3 33 -26 -54 62 -36 -4 -43 3 -40 21 69 -20
0000e0 e0 d7 04 17 d7 f1 01 fc bf f4 fa e9 35 02 cb 30
       -32 -41 4 23 -41 -15 1 -4 -65 -12 -6 -23 53 2 -53 48
0000f0 11 dc de e8 05 13 fe f5 e8 f0 dd f4 c9 09 39 a4
       17 -36 -34 -24 5 19 -2 -11 -24 -16 -35 -12 -55 9 57 -92

sequential/dense/MatMul i1 [64, 1024] scale=0.0038923188 zero_point=0
000000 f9 ef 17 dc 0e ed 0b e4 01 17 10 01 02 09 ed ff
       -0.027246231 -0.06616942 0.08952333 -0.14012347 0.054492462 -0.07395406 0.042815506 -0.108984925 0.0038923188 0.08952333 0.0622771 0.0038923188 0.0077846376 0.035030868 -0.07395406 -0.0038923188
000010 0f f3 0d 1d fa e6 f4 1c 1d 0b 00 ff 06 e1 0c 09
       0.058384784 -0.050600145 0.050600145 0.11287724 -0.023353912 -0.10120029 -0.046707824 0.108984925 0.11287724 0.042815506 0.0 -0.0038923188 0.023353912 -0.120661885 0.046707824 0.035030868
000020 0d f0 0a 1c 10 e3 10 fd 21 20 f3 2f f5 f3 06 f0
       0.050600145 -0.0622771 0.03892319 0.108984925 0.0622771 -0.11287724 0.0622771 -0.011676956 0.12844652 0.1245542 -0.050600145 0.18293898 -0.042815506 -0.050600145 0.023353912 -0.0622771
000030 ed 04 03 21 ee f4 01 18 3f 0b ee 0c 09 1c f6 f4
       -0.07395406 0.015569275 0.011676956 0.12844652 -0.070061736 -0.046707824 0.0038923188 0.09341565 0.24521609 0.042815506 -0.070061736 0.046707824 0.035030868 0.108984925 -0.03892319 -0.046707824
000040 f6 f2 09 05 08 01 09 3e 26 ff f1 11 f6 31 f0 09
       -0.03892319 -0.054492462 0.035030868 0.019461595 0.03113855 0.0038923188 0.035030868 0.24132377 0.14790812 -0.0038923188 -0.058384784 0.06616942 -0.03892319 0.19072363 -0.0622771 0.035030868
000050 08 f4 00 09 d0 fe 20 e5 06 f3 fd f1 1c 06 0c fa
       0.03113855 -0.046707824 0.0 0.035030868 -0.1868313 -0.0077846376 0.1245542 -0.10509261 0.023353912 -0.050600145 -0.011676956 -0.058384784 0.108984925 0.023353912 0.046707824 -0.023353912
000060 0c e0 ef 30 f3 01 f0 05 0d ff ff e3 c4 0c 34 11
       0.046707824 -0.1245542 -0.06616942 0.1868313 -0.050600145 0.0038923188 -0.0622771 0.019461595 0.050600145 -0.0038923188 -0.0038923188 -0.11287724 -0.23353913 0.046707824 0.20240058 0.06616942
000070 3e f9 0c 12 46 08 fa 1a 0d 0a 08 0e e4 19 0b 17
       0.24132377 -0.027246231 0.046707824 0.070061736 0.2724623 0.03113855 -0.023353912 0.10120029 0.050600145 0.03892319 0.03113855 0.054492462 -0.108984925 0.09730797 0.042815506 0.08952333
000080 25 d0 02 0b 07 f3 0e d0 1e fe ee 0a 04 36 ff 0c
       0.14401579 -0.1868313 0.0077846376 0.042815506 0.027246231 -0.050600145 0.054492462 -0.1868313 0.11676957 -0.0077846376 -0.070061736 0.03892319 0.015569275 0.21018521 -0.0038923188 0.046707824
000090 05 02 ee 04 f3 e5 25 1d 05 06 fa f4 e3 f1 d8 01
       0.019461595 0.0077846376 -0.070061736 0.015569275 -0.050600145 -0.10509261 0.14401579 0.11287724 0.019461595 0.023353912 -0.023353912 -0.046707824 -0.11287724 -0.058384784 -0.15569276 0.0038923188
0000a0 d6 07 06 0b f5 08 ff 0a 16 f7 d2 e5 e4 15 15 f1
       -0.16347739 0.027246231 0.023353912 0.042815506 -0.042815506 0.03113855 -0.0038923188 0.03892319 0.08563101 -0.035030868 -0.17904666 -0.10509261 -0.108984925 0.081738696 0.081738696 -0.058384784
0000b0 f6 0b 01 04 0f fb d7 1f ee c3 0f ff f4 dd 02 32
       -0.03892319 0.042815506 0.0038923188 0.015569275 0.058384784 -0.019461595 -0.15958507 0.120661885 -0.070061736 -0.23743145 0.058384784 -0.0038923188 -0.046707824 -0.13623115 0.0077846376 0.19461595
0000c0 fd 13 04 f9 3b fc 09 10 02 1a 04 08 ed f0 24 e6
       -0.011676956 0.07395406 0.015569275 -0.027246231 0.22964682 -0.015569275 0.035030868 0.0622771 0.0077846376 0.10120029 0.015569275 0.03113855 -0.07395406 -0.0622771 0.14012347 -0.10120029
0000d0 f3 da 09 f2 11 e1 ed 09 f2 db 03 db fc cc fa 04
       -0.050600145 -0.14790812 0.035030868 -0.054492462 0.06616942 -0.120661885 -0.07395406 0.035030868 -0.054492462 -0.14401579 0.011676956 -0.14401579 -0.015569275 -0.20240058 -0.023353912 0.015569275
0000e0 e1 da ec fc f2 fb 07 fd 4c ff 17 fd 02 03 f4 15
       -0.120661885 -0.14790812 -0.07784638 -0.015569275 -0.054492462 -0.019461595 0.027246231 -0.011676956 0.29581624 -0.0038923188 0.08952333 -0.011676956 0.0077846376 0.011676956 -0.046707824 0.081738696
0000f0 0d f6 01 f3 12 05 0d f4 e4 1d f5 e4 eb 03 26 e6
       0.050600145 -0.03892319 0.0038923188 -0.050600145 0.070061736 0.019461595 0.050600145 -0.046707824 -0.108984925 0.11287724 -0.042815506 -0.108984925 -0.081738696 0.011676956 0.14790812 -0.10120029
